saved_models/global_model.pth (torch, 409208 bytes, 4 tensors)

fc1.weight f4 [128, 784]
00000000: d5e8 04bd d3db dfbb 7189 b53c de57 b1bc
00000010: 9e21 d9bc dc90 a9bc 537e 91bb 0a67 793c
00000020: 6501 03bd 77f0 593c 5cde 10bc 1724 1c3c
00000030: 1c4c 10bc bc22 793c 7883 f3bc 90dc 92bc
00000040: ce7c aabc f39e 073c 953f d13c 3743 36bb
00000050: f5db f33c 0525 f2bc c137 e53c e219 11bd
00000060: 0c31 cf3c 2a38 0f3d 332c a3bc fc49 e03c
00000070: ee4d 9b3b 3e80 ce3c 9357 5c3c 019e 2d3b
00000080: 7879 e03b dce5 fc3b 0161 d73c 4e2f 87bc
00000090: 2637 0cbd fc84 b63c 5ca7 dcbb caf1 20bc
000000a0: 7c47 f53c 81d8 6e3b 53de aabb 3333 16bc
000000b0: 5c75 9d3c 73b0 3a3c e77f ca3c ae39 f1bb
000000c0: caef 3bbc 3799 a63c 15c3 ca3c 057f 523c
000000d0: d6ec 0ebd 2e95 92bb aa9a 62bc ce1b 6d3c
000000e0: 0eed 103d d7e9 133c 3a3b 0d3d 6e48 88bb
000000f0: 835a a03c 334b dcbc 8383 af3c 4e99 07bc
00000100: 8101 af3b 6115 6abc 25e5 f4bb b34e fb3c
00000110: 1eb2 963c 4c6a d93c fa70 9c3c 853d 2d3c
00000120: 1e33 fc3c 65d7 f63b e588 d33c 9850 edbc
00000130: fcac 90bc d735 c33c 5c94 2dbc 1e93 cfbc
00000140: aefa 15bc c56e 683c 4ab4 5f3c aa61 21bc
00000150: 634b 02bd 738a 043d 940f 08bd 3729 b43c
00000160: 4a5d 8fbc b7b3 423b 2e4f e23b 8a98 ce3c
00000170: dc8f e9bb 2c0c 913c 8729 d6bc 9cd1 a3bc
00000180: f3f4 5abc ded9 d9bc 476f bcbc 6dd6 053d
00000190: d358 04bc fc06 35bc 6ae5 05bd 0169 3c3c
000001a0: 65be ffbb c35f cebc 43ec febc a1da 3c3c
000001b0: b7ab ab3c 1592 823c 7399 3a3c e1d4 f53c
000001c0: 8af6 b7bc e334 85bc 054c fb3c d3bb 983c
000001d0: 53b6 afbc 73c2 8dbc 9316 17ba 816c dd3b
000001e0: cab2 23bc 93d0 e2ba eaee 683c 83f5 96bc
000001f0: 9a6a 82bc beec f23c 94ae 09bd ca9b 08bd
00000200: 45af 87bc 5cf2 323c 41e1 ef3b 001f 8cbb
00000210: 8e40 2fbc a5b1 283b 4a2d 653c 2517 43ba
00000220: 3cf1 7a3c 0e4e 65bc 3ed8 adbc b755 2e3c
00000230: dce5 0dbb 2149 3c3c 2f09 0a3d 5c04 dcbc
00000240: eab5 0fbd 6ea3 1ebc d7cb dabc 842c 023d
00000250: 0aec ce3b 457f 0abd 81a9 b93c 6a3c 45bc
00000260: ca1b 093c 6ee1 ccbc 0cde c6bc 3ee4 9e3c
00000270: 8566 b53c ffac 11bd f3c9 ddbc 8ebf 59bc
00000280: 1dc0 08bd 77da b6bc ce17 f93c bc5a 4b3c
00000290: 5f60 03bd b3b4 63bc 6183 69bc 3589 9ebc
000002a0: f1a3 c43c c54b 7c3c f3be e1bc 05ab 20bc
000002b0: 3234 0f3d 8e47 4dbc 939c abbc 4ab4 67ba
000002c0: 4e65 7fbc 0131 f33a 657e f2bb 9cc4 b2bb
000002d0: 96d8 00bd 813d b4bb 83a1 c73c f580 c43c
000002e0: 531d a13b 8adc bf3c 8160 2e3b 5844 0e3d
000002f0: dc0b 133c 7a5c b7bc b599 a7bc be29 a43c
00000300: 6eb9 9a3a 035a d03c fec3 c4bc dc02 18bb
00000310: 6e6f 44ba 0720 113d 83b5 ab3c 00c0 02bb
00000320: 8f61 0a3d 77dc 9ebc 2388 e13c 6a3a 3d3c
00000330: d293 013d e5d0 c0bc 45a9 793c 752e e63c
00000340: accb 043d 0e15 09bd 47a5 c1bc dcba 113c
00000350: 05a5 0c3d 2716 98bc 6326 a03c e3f0 cbbc
00000360: 9c46 9c3c d063 013d 1705 b53c ca11 f63c
00000370: ee7a 90bb 3c5d babc 317c b7bc 932f 5d3b
00000380: b58d a83c a852 e3bc 538d 80bc 4e58 ab3c
00000390: 10dd 0a3d 6eff 02bc d8d6 e73c 01ae 683a
000003a0: 1078 0dbd 0e98 d9bc 013c 57ba d201 0c3d
000003b0: fc8d 563c f8f0 673c ca3c 38bb 7a53 b13c
000003c0: 25d1 e639 5be5 05bd 5335 e4bc 9c81 1ebc
000003d0: dcd0 2fbb e3ea b13c 979b 4b3c e554 933b
000003e0: 8af3 d43b fcd5 00bd 2cb6 06bd d392 86bc
000003f0: 4533 b8bc 4acf 19bb f87a 0c3d 1367 c53b
-0.03244861 -0.006831625 0.022160264 -0.021648344 -0.026505288 -0.020698957 -0.004440108 0.01522232
-0.03198375 0.01330196 -0.008842077 0.009530089 -0.008807208 0.015206035 -0.029725775 -0.017927438
-0.020811465 0.008277643 0.025543014 -0.002781106 0.02976797 -0.029558668 0.027980687 -0.035425074
0.025291942 0.03496567 -0.019918537 0.027379028 0.0047395146 0.025207635 0.013448614 0.0026491883
0.0068504177 0.007717831 0.026291372 -0.016502049 -0.03423228 0.022280209 -0.006733818 -0.009823272
0.029941313 0.0036444964 -0.0052144914 -0.00916748 0.019221 0.011394608 0.024719192 -0.0073616123
-0.011470744 0.02033673 0.024751225 0.012847667 -0.034893833 -0.00447335 -0.01383082 0.014471961
0.035382323 0.00902792 0.03448031 -0.004159025 0.01957441 -0.026891327 0.021425014 -0.008276297
0.0053407555 -0.014287324 -0.007473605 0.030677175 0.01839548 0.026539944 0.01909684 0.010573749
0.030786093 0.0075330012 0.025822112 -0.028969094 -0.01766061 0.023829384 -0.010594454 -0.025338706
-0.009154005 0.014186566 0.013653824 -0.009849945 -0.031810176 0.032358598 -0.03321798 0.021992309
-0.017500538 0.002970917 0.0069064116 0.02521922 -0.007127745 0.017706 -0.026142849 -0.01999741
-0.0133640645 -0.026593145 -0.02300228 0.032675195 -0.008077818 -0.0110490285 -0.03268949 0.011499644
-0.007804679 -0.025192147 -0.031118518 0.011526735 0.020955903 0.015938798 0.011389124 0.030008735
-0.022456426 -0.01626057 0.030675897 0.018644249 -0.021449244 -0.017304635 -0.00057635567 0.0067573194
-0.009991357 -0.0017304592 0.014217118 -0.018427616 -0.015919972 0.029653903 -0.033613756 -0.033351697
-0.016563067 0.010922041 0.0073205535 -0.0042761564 -0.010696543 0.002574065 0.013987849 -0.00074421085
0.015316304 -0.0139956605 -0.021221276 0.010640553 -0.00216519 0.011492045 0.033700164 -0.026857547
-0.035085596 -0.009682519 -0.026708527 0.031780735 0.006314759 -0.03381278 0.022663834 -0.01203833
0.008368442 -0.025009837 -0.024275802 0.019395944 0.022143612 -0.035565373 -0.027073836 -0.013290299
-0.03338634 -0.022320969 0.030406859 0.0124117695 -0.03207433 -0.0138980625 -0.014252515 -0.019352535
0.024003955 0.015398924 -0.027556872 -0.009806399 0.034961887 -0.012529267 -0.020948684 -0.0008838816
-0.015588118 0.0018554033 -0.0074003213 -0.0054555666 -0.031456552 -0.005500496 0.024369007 0.023987273
0.004916826 0.02342059 0.0026607814 0.034733146 0.008974995 -0.022382963 -0.020459035 0.020039435
0.001180453 0.025433546 -0.024019238 -0.0023195064 -0.0007493411 0.035430934 0.020960575 -0.0019950867
0.033784445 -0.019392235 0.027530735 0.0115495715 0.031635113 -0.023537109 0.015238111 0.028098324
0.0324208 -0.033467345 -0.02363838 0.008894648 0.034337062 -0.01856525 0.019549554 -0.024895137
0.019076638 0.03158933 0.022097154 0.03003778 -0.0044091856 -0.022749536 -0.022398086 0.003375028
0.020575384 -0.027749375 -0.015692389 0.02091613 0.033902228 -0.0079954695 0.028300688 0.0008876026
-0.03453833 -0.026561763 -0.00082105404 0.034181423 0.013095375 0.0141565725 -0.0028112405 0.02164625
0.00044024843 -0.032689434 -0.027857458 -0.009674456 -0.002682737 0.021718448 0.012427232 0.004496204
0.0064987587 -0.03145407 -0.032888576 -0.016427433 -0.022485385 -0.0023469501 0.03429696 0.0060242503

fc1.bias f4 [128]
00000000: 518e e3bc b7f8 d1bb 6c8b 073d fcae d6bc
00000010: aab8 d43c eac9 053c bc3a a53c f822 e93c
00000020: 4a92 d736 c532 32bc 1777 1d3c e0d0 94bc
00000030: 3572 92bc a06f 26bc 5735 083d 4a13 033d
00000040: cea4 5dbc 7830 03bd 7a11 c8bc b757 b43c
00000050: cad0 53bc 8011 053d 8a23 46bc ea76 30bc
00000060: b3a6 303c ace6 babc 67a9 9cbc 33a4 bf3c
00000070: 4ab4 baba e5d9 4b3c e567 1ebc d347 893c
00000080: 6396 893c 8533 063c f124 bf3c a5a0 6e3c
00000090: 235c c03c b345 b2bc ae92 bfbc 2675 0c3d
000000a0: a3b6 f0bc 934b d03a 8528 c9bc de19 d8bc
000000b0: eaf6 59bc b7b8 903c b5cc 8dbc e735 873c
000000c0: 1cf0 e53c 5558 cdbc e53f 7cbc 37e5 11bc
000000d0: 6a43 443c 9eee f23c 46b7 113d fd5a 10bd
000000e0: 93c6 3d3a eed0 febb c586 16bc 40a1 903b
000000f0: aab9 3fbc 6ea3 a23a 6c76 dd3c 133e 86bc
00000100: dc87 7f3b 882e fdbc 3cd7 07bc 6080 22bc
00000110: 9c6b 343c cab5 36bc 8520 273c fa52 b83c
00000120: dc07 f2bc 3a2e 04bd 3a45 87bc 6e3d 103a
00000130: 30db a73c d58a c9bc 6c2d 8dbc 6a54 0abd
00000140: 7180 d5bc 4b62 0bbd f377 fb3c 90e9 03bd
00000150: b78c 8a3b b7b3 47bb 8827 07bd fc29 673c
00000160: f713 41bc d7d2 cf3c dce2 bdbb af05 013d
00000170: 6e84 bfba caf0 c7bb 75d2 9b3c f1ae f6bc
00000180: 2e3c 043d ee05 3abc a55c ca3b 9c43 c13b
00000190: b7b7 123b 33de 97bc d39a 0b3d d53f efbc
000001a0: 25ba 15bb 3c62 f43c 1323 973b dc46 8739
000001b0: 8c43 eabc 35d3 f23c fc69 f2bc 4176 d43b
000001c0: d070 90bc e5f1 f8bb 8ae8 773c 13eb 213c
000001d0: 2c32 8c3c a137 323c dc7f 6dbc 5352 d03c
000001e0: e5fa e63b ae4c c1bc 6e33 343c 2832 043d
000001f0: 0a39 a23c 9794 0c3c 6c7d 933c 6ed3 06bc
-0.027777823 -0.006407823 0.033091947 -0.026206486 0.025966961 0.008165816 0.020169608 0.028459057
6.4245296e-06 -0.010876362 0.009610913 -0.018166006 -0.017876724 -0.010158449 0.033253994 0.032000817
-0.013528062 -0.032028645 -0.024422396 0.022014482 -0.012928197 0.032487392 -0.012093434 -0.010770539
0.010781932 -0.022815071 -0.019123746 0.023393726 -0.0014244404 0.012442087 -0.009668325 0.016757881
0.016795343 0.008190994 0.023333045 0.014564668 0.023481434 -0.02176175 -0.023385372 0.03429141
-0.029383963 0.0015891663 -0.024555454 -0.026379522 -0.013303498 0.017666204 -0.017309526 0.016505195
0.028068595 -0.025066534 -0.015396093 -0.008904747 0.011978963 0.029654797 0.035575174 -0.035243023
0.00072393677 -0.007776371 -0.009187405 0.0044137537 -0.011701981 0.0012408325 0.027034007 -0.016387021
0.003899089 -0.030905977 -0.008291062 -0.009918302 0.011011984 -0.01115174 0.010200624 0.022500504
-0.029544763 -0.032270648 -0.016512502 0.0005502318 0.020490259 -0.024602333 -0.017233573 -0.03377191
-0.026062222 -0.034029286 0.030696845 -0.032205164 0.0042282003 -0.0030472109 -0.032996684 0.014109131
-0.011784545 0.025369091 -0.005794866 0.03149956 -0.0014611611 -0.0061017023 0.019021252 -0.030112715
0.032283954 -0.011353953 0.006175595 0.0058979522 0.0022387335 -0.01853857 0.0340832 -0.029205242
-0.0022846546 0.029831998 0.0046123355 0.00025802 -0.028596662 0.029641727 -0.029591553 0.0064838235
-0.017631918 -0.0075971955 0.015131125 0.009882706 0.017113768 0.010877521 -0.014495816 0.02542988
0.007048952 -0.023596134 0.01099859 0.032274395 0.019802589 0.008580348 0.018004142 -0.00822912

fc2.weight f4 [10, 128]
00000000: 87a1 83bd de86 51bc 202b 96bd 88d9 293d
00000010: da55 5ebb f3df 75bc 8e96 af3c 0419 9bbd
00000020: d675 083d fe68 ac3d 89b4 11bd 527b d33c
00000030: 9d2e 923d aad2 e93c 8e23 dfbc 2988 553d
00000040: 0c41 e9bb 4143 763d 408d e2bb 450a a53c
00000050: f5f2 6cbd e33a 353d cbdb 693d 7412 2a3d
00000060: db31 49bd 2347 923b 760b b2bd 0f57 18bc
00000070: ef6a b83c d80a a13c 9523 a03d f0b6 92bd
00000080: 351e 023d a86f 933d a4d0 333d d946 0ebd
00000090: 4939 37bd 71d4 3bbd e1a9 ecbc 8d4d 0bbd
000000a0: 5d16 7a3d 2e96 953d 9d01 e33c 521a 65bd
000000b0: 4f45 543d abb5 d53c 177c dc3b 5a1b a9bc
000000c0: b360 843d 8d28 54bd b481 b2bc 04b0 923d
000000d0: ae7f e7bb fca8 ffbc 261e 12bd 1a45 8a3d
000000e0: a198 a43d 8096 033d d4a7 5d3d 9c7b 553d
000000f0: 9cf9 96bd a9a5 6a3d 6855 043d 896a c93c
00000100: 3f9e 843d 3047 4c3c f69b 933d 74b7 30bb
00000110: 4200 1dbc e3f9 e5bb 5956 803c 00ae cdb8
00000120: 500a 8e3d 2cbe cdbb e274 e1ba a01a 20bd
00000130: 1976 a6bc 6d97 a83d c998 363d bb5c 65bc
00000140: 6d85 b33d b6a4 313d 3830 5abc b5d7 8fbd
00000150: 4ed7 2c3d 871d 883d bca1 a83d 7740 fbbb
00000160: 5e0c 7c3d a51f aabd c721 84bb 6b94 32bd
00000170: edf0 39bd 58c9 953d 6863 3b3c 1dc5 623b
00000180: 80ac 7f3d 8465 7c3c cc4e a2bd a2e9 0f3d
00000190: b640 0f3d 5447 553d d09b a0bd 2c7d 6dbd
000001a0: 8b89 48bd 459d f7bc 28fa 5ebd 918c 64bd
000001b0: 7eed 87bd 5dbf c13c f3eb 3c3d 270e 33bd
000001c0: 5656 2ebd f853 263d d7c2 833d 8397 503d
000001d0: 85ba 9a3d 81dd 28bb f580 24bd 5a5b 083d
000001e0: 433d 7b3d c86a 1ebd 454b 0e3d 993e 073d
000001f0: 2e33 063c 2a1b 68bd 548e f43c d489 7fbd
00000200: 3752 453d fbab 553d 6129 ae3d 9c6d 663d
00000210: d5b9 e8bc 3580 a83d ada7 843d ea3a d63c
00000220: 2c10 4dbd 9fb9 8dbd 7e3f 603d 521f 88bd
00000230: 9ee9 a5bd 1069 263d 36db 4f3d 94ec 8d3d
00000240: 69d6 2ebd 51ac 71bd ff8c 083d 26c5 6c3d
00000250: 5438 1b3d 8ba0 2f3d 8a45 07bc 09b0 5d3c
00000260: de97 273d 3c74 84bd d541 a0bd c883 793b
00000270: 80ac 7fbc d0eb fabc e6f6 813c 2dc8 fd3c
00000280: 8944 8bbd 77f5 853d 7902 b4bd 7b0d b5bc
00000290: a954 95bd 8d0c 763d c8a8 02bd 84d6 adbd
000002a0: 0fc7 ea3c 0031 fa3c a155 993d 0b8f 33bd
000002b0: f722 793d ce66 20bd 2c7e 9dbd e860 af3d
000002c0: 7643 093d 76d5 7c3c 22c3 edbb cab0 2c3d
000002d0: 1395 38bc dde9 593d 5ff8 0bbc 04f2 ab3b
000002e0: 0edb 27bd f205 8dbd 4652 a43d 1143 173c
000002f0: bd5f 043b a8cb b7bc c9ae 293d 186a 5ebc
00000300: 0d26 f43b bf33 913d 0a09 2a3d be5f 21bc
00000310: 1ad4 7c3d 91ee 0e3c d2a5 b43d c7dc 4f3d
00000320: 0489 933d 514e 083d 5213 7b3d 050f 9d3c
00000330: 03e8 803c 7680 ee3c bfc6 063d 21ca 4d3d
00000340: c21a 1a3d 5acc 6ebd 40f2 4abd 94fd 873d
00000350: 05c3 a93d 1eae 7ebc 873e 583d 2a10 1cbd
00000360: 32f5 8b3d 7e5a 8dbd bf70 e23c 6d7f c33c
00000370: f882 993d dbcf 8c3d 0912 38bd 5ccf 7abd
00000380: 2417 343d 34a3 c7bc 010a 583b 3fe2 8dbd
00000390: cb4d 7a3d 3e1d e6bb 4811 cabb 0a5d 8dbd
000003a0: ea40 47bb 081b 0ebd 7eaa b03d 1f43 98bd
000003b0: 0f44 6c3d 890e a9bc a3b3 5fbd 532a 05ba
000003c0: 37d3 ee3c 81eb 543c 0e1a 903d e7a9 8abd
000003d0: 85c0 613d 48ba 473d 83c3 f9bb 2e57 6a3d
000003e0: 67ab 4bbd b974 b23d c3b5 b03d cf5a e13b
000003f0: ea69 833d 75ef 2abd 5e7e 4b3c a2f7 0fbd
-0.06427293 -0.0127885025 -0.07332444 0.04146722 -0.0033925683 -0.015007007 0.021434095 -0.07573131
0.033315502 0.08418463 -0.035572562 0.02581564 0.07137797 0.028542835 -0.027238633 0.052131806
-0.00711835 0.060122732 -0.006913811 0.020146498 -0.05784889 0.044245612 0.057094377 0.041521505
-0.04911981 0.0044640466 -0.08693592 -0.0092981 0.022511927 0.019658491 0.07819287 -0.07163799
0.03176709 0.07199031 0.043900147 -0.034735534 -0.044732366 -0.045856897 -0.028889598 -0.034009505
0.061056484 0.07304035 0.02771073 -0.055933304 0.05182391 0.026087603 0.00672866 -0.020642925
0.064637564 -0.051796485 -0.021790363 0.071624786 -0.007064781 -0.031208508 -0.035673283 0.06751461
0.08036924 0.03212595 0.05411513 0.052119836 -0.07371828 0.057286892 0.032308012 0.024586933
0.064754955 0.012468144 0.072074816 -0.0026964815 -0.009582581 -0.007018314 0.015666174 -9.807572e-05
0.06935561 -0.006278774 -0.0017200971 -0.03908789 -0.020319985 0.08232007 0.0445793 -0.013999159
0.08765683 0.04336997 -0.01331716 -0.07023565 0.042197518 0.06646257 0.082339734 -0.007667597
0.06153523 -0.08306817 -0.004032347 -0.043598574 -0.04539578 0.07313794 0.0114372745 0.0034602352
0.06242037 0.015405063 -0.079251856 0.03513492 0.034973823 0.052069977 -0.07842219 -0.0579807
-0.048959296 -0.03022636 -0.054437786 -0.055798117 -0.06637095 0.02365082 0.046123456 -0.04371467
-0.042562805 0.040607423 0.06433647 0.050925743 0.07555107 -0.0025766792 -0.040162046 0.033290245
0.06133772 -0.038676053 0.03473975 0.033018682 0.008190913 -0.05666653 0.029853024 -0.062387303
0.04817411 0.052165966 0.08503986 0.056256875 -0.028408924 0.082275786 0.06477294 0.02615114
-0.05006425 -0.0692017 0.05474805 -0.06646599 -0.081011996 0.04062754 0.050746165 0.06929889
-0.042684946 -0.059002224 0.03333759 0.057805203 0.037895516 0.042877715 -0.0082563255 0.01353074
0.040916316 -0.064674824 -0.078250565 0.0038072933 -0.015605092 -0.030630022 0.0158648 0.03097924
-0.068001814 0.06540959 -0.08789534 -0.022101155 -0.07291538 0.060070563 -0.031899244 -0.08488181
0.028659372 0.030540943 0.074870355 -0.04383759 0.06082436 -0.039160542 -0.07690081 0.08563405
0.0335116 0.015431752 -0.0072559277 0.042160787 -0.011266011 0.053201545 -0.008543103 0.0052473564
-0.04098039 -0.068858996 0.08023505 0.0092322985 0.0020198666 -0.022435978 0.041426454 -0.013575099
0.007450825 0.07089948 0.041512527 -0.009849487 0.061725713 0.008723871 0.0882069 0.05074766
0.07203868 0.033277813 0.061297722 0.019172201 0.015735632 0.02911399 0.032904383 0.050241593
0.037623174 -0.058300354 -0.049547434 0.06640163 0.0828915 -0.015544442 0.052794006 -0.038101353
0.06833877 -0.06902026 0.027641652 0.023864472 0.074956834 0.06875583 -0.044939075 -0.06123291
0.04396738 -0.024369814 0.0032964947 -0.06927919 0.061109345 -0.007022529 -0.006166611 -0.069025114
-0.0030403682 -0.034693748 0.08626269 -0.07434677 0.057682093 -0.020636814 -0.054614674 -0.0005079854
0.02915345 0.012995602 0.070362195 -0.067706876 0.05511524 0.048761636 -0.0076221838 0.057212047
-0.04972401 0.08713669 0.08628418 0.0068772803 0.06416686 -0.04173227 0.012420265 -0.03514827

fc2.bias f4 [10]
00000000: c099 963d 9d2a 48bc c4cc 1fbd 5234 473d
00000010: efb2 9dbb 4c9f 9c3c 9c4b 843d 27d2 1ebd
00000020: 7791 b0bd ed23 79bd
0.07353544 -0.012217191 -0.03901364 0.04863388 -0.0048125903 0.019118927 0.06459734 -0.038774636
-0.08621495 -0.060825277
